…
al network to model εθ(zt e,t). The network shown in Figure 10 consists of a time embedding similar to [Ho et al., 2020], as well as a few linear or 1D-convolutional layers, totalling around 5000 parameters. 16Figure 10: Graphical representation of the neural network used for the toy dataset. For the parameterisation of the quantization part, we choosepzq θ,t(zt q = ej|zt e) = Softmax1≤k≤K{−∥ze− ek∥2}j, and the same parameterisation for qzq ϕ,t(zt q|zt e). Therefore our loss simpliﬁes to: L(θ,ϕ) = Eqϕ [ log px θ(x|z0 q) ] + Lt(θ,ϕ) , where tis sampled uniformly in {0,...,T }. t NN sequence 50 (0, 7, 3, 6, 2) 40 (6, 5, 5, 5, 3) 30 (5, 5, 5, 4, 2) 20 (6, 6, 5, 4, 3) 10 (5, 6, 5, 4, 3) 0 (5, 6, 5, 4, 3) Table 4: Discrete samples during diffusion process. The discrete sequence is obtained by computing the nearest neighbour centroid µj for each Xt s. At t = 0, X0 is sampled from a centered Gaussian distribution with small covariance matrix (2ϑ)−1η2I2×5, resulting in a uniform discrete sequence, as all centroids have a similar unit norm. Discrete samples during diffusion processDisc
…
