…
(zt e,t). The network shown in Figure 10 consists of a time embedding similar to [Ho et al., 2020], as well as a few linear or 1D-convolutional layers, totalling around 5000 parameters. 16Figure 10: Graphical representation of the neural network used for the toy dataset. For the parameterisation of the quantization part, we choosepzq Оё,t(zt q = ej|zt e) = Softmax1вүӨkвүӨK{вҲ’вҲҘzeвҲ’ ekвҲҘ2}j, and the same parameterisation for qzq П•,t(zt q|zt e). Therefore our loss simpliп¬Ғes to: L(Оё,П•) = EqП• [ log px Оё(x|z0 q) ] + Lt(Оё,П•) , where tis sampled uniformly in {0,...,T }. t NN sequence 50 (0, 7, 3, 6, 2) 40 (6, 5, 5, 5, 3) 30 (5, 5, 5, 4, 2) 20 (6, 6, 5, 4, 3) 10 (5, 6, 5, 4, 3) 0 (5, 6, 5, 4, 3) Table 4: Discrete samples during diffusion process. The discrete sequence is obtained by computing the nearest neighbour centroid Вөj for each Xt s. At t = 0, X0 is sampled from a centered Gaussian distribution with small covariance matrix (2П‘)вҲ’1О·2I2Г—5, resulting in a uniform discrete sequence, as all centroids have a similar unit norm. Discrete samples during diffusion proce
…
